{"config": {"output_layers": [["dense_2", 0, 0]], "layers": [{"inbound_nodes": [], "config": {"dtype": "float32", "batch_input_shape": [null, 225, 225, 3], "name": "input_1", "sparse": false}, "class_name": "InputLayer", "name": "input_1"}, {"inbound_nodes": [[["input_1", 0, 0, {}]]], "config": {"kernel_size": [7, 7], "trainable": true, "activation": "relu", "kernel_regularizer": {"config": {"l2": 9.999999747378752e-05, "l1": 0.0}, "class_name": "L1L2"}, "dilation_rate": [1, 1], "padding": "same", "strides": [1, 1], "activity_regularizer": null, "kernel_constraint": null, "bias_constraint": null, "data_format": "channels_last", "name": "conv2d_1", "use_bias": true, "bias_initializer": {"config": {}, "class_name": "Zeros"}, "bias_regularizer": null, "kernel_initializer": {"config": {"distribution": "uniform", "seed": null, "scale": 1.0, "mode": "fan_avg"}, "class_name": "VarianceScaling"}, "filters": 64}, "class_name": "Conv2D", "name": "conv2d_1"}, {"inbound_nodes": [[["conv2d_1", 0, 0, {}]]], "config": {"gamma_regularizer": null, "trainable": true, "axis": -1, "gamma_initializer": {"config": {}, "class_name": "Ones"}, "beta_regularizer": null, "beta_constraint": null, "moving_mean_initializer": {"config": {}, "class_name": "Zeros"}, "beta_initializer": {"config": {}, "class_name": "Zeros"}, "moving_variance_initializer": {"config": {}, "class_name": "Ones"}, "epsilon": 0.001, "gamma_constraint": null, "name": "batch_normalization_1", "scale": true, "center": true, "momentum": 0.99}, "class_name": "BatchNormalization", "name": "batch_normalization_1"}, {"inbound_nodes": [[["batch_normalization_1", 0, 0, {}]]], "config": {"trainable": true, "data_format": "channels_last", "name": "max_pooling2d_1", "pool_size": [2, 2], "strides": [2, 2], "padding": "valid"}, "class_name": "MaxPooling2D", "name": "max_pooling2d_1"}, {"inbound_nodes": [[["max_pooling2d_1", 0, 0, {}]]], "config": {"kernel_size": [3, 3], "trainable": true, "activation": "relu", "kernel_regularizer": {"config": {"l2": 9.999999747378752e-05, "l1": 0.0}, "class_name": "L1L2"}, "dilation_rate": [1, 1], "padding": "same", "strides": [2, 2], "activity_regularizer": null, "kernel_constraint": null, "bias_constraint": null, "data_format": "channels_last", "name": "conv2d_2", "use_bias": true, "bias_initializer": {"config": {}, "class_name": "Zeros"}, "bias_regularizer": null, "kernel_initializer": {"config": {"distribution": "uniform", "seed": null, "scale": 1.0, "mode": "fan_avg"}, "class_name": "VarianceScaling"}, "filters": 64}, "class_name": "Conv2D", "name": "conv2d_2"}, {"inbound_nodes": [[["conv2d_2", 0, 0, {}]]], "config": {"gamma_regularizer": null, "trainable": true, "axis": -1, "gamma_initializer": {"config": {}, "class_name": "Ones"}, "beta_regularizer": null, "beta_constraint": null, "moving_mean_initializer": {"config": {}, "class_name": "Zeros"}, "beta_initializer": {"config": {}, "class_name": "Zeros"}, "moving_variance_initializer": {"config": {}, "class_name": "Ones"}, "epsilon": 0.001, "gamma_constraint": null, "name": "batch_normalization_2", "scale": true, "center": true, "momentum": 0.99}, "class_name": "BatchNormalization", "name": "batch_normalization_2"}, {"inbound_nodes": [[["batch_normalization_2", 0, 0, {}]]], "config": {"kernel_size": [3, 3], "trainable": true, "activation": "relu", "kernel_regularizer": {"config": {"l2": 9.999999747378752e-05, "l1": 0.0}, "class_name": "L1L2"}, "dilation_rate": [1, 1], "padding": "same", "strides": [1, 1], "activity_regularizer": null, "kernel_constraint": null, "bias_constraint": null, "data_format": "channels_last", "name": "conv2d_3", "use_bias": true, "bias_initializer": {"config": {}, "class_name": "Zeros"}, "bias_regularizer": null, "kernel_initializer": {"config": {"distribution": "uniform", "seed": null, "scale": 1.0, "mode": "fan_avg"}, "class_name": "VarianceScaling"}, "filters": 64}, "class_name": "Conv2D", "name": "conv2d_3"}, {"inbound_nodes": [[["max_pooling2d_1", 0, 0, {}]]], "config": {"kernel_size": [1, 1], "trainable": true, "activation": "relu", "kernel_regularizer": {"config": {"l2": 9.999999747378752e-05, "l1": 0.0}, "class_name": "L1L2"}, "dilation_rate": [1, 1], "padding": "same", "strides": [2, 2], "activity_regularizer": null, "kernel_constraint": null, "bias_constraint": null, "data_format": "channels_last", "name": "conv2d_4", "use_bias": true, "bias_initializer": {"config": {}, "class_name": "Zeros"}, "bias_regularizer": null, "kernel_initializer": {"config": {"distribution": "uniform", "seed": null, "scale": 1.0, "mode": "fan_avg"}, "class_name": "VarianceScaling"}, "filters": 64}, "class_name": "Conv2D", "name": "conv2d_4"}, {"inbound_nodes": [[["conv2d_3", 0, 0, {}], ["conv2d_4", 0, 0, {}]]], "config": {"trainable": true, "name": "add_1"}, "class_name": "Add", "name": "add_1"}, {"inbound_nodes": [[["add_1", 0, 0, {}]]], "config": {"gamma_regularizer": null, "trainable": true, "axis": -1, "gamma_initializer": {"config": {}, "class_name": "Ones"}, "beta_regularizer": null, "beta_constraint": null, "moving_mean_initializer": {"config": {}, "class_name": "Zeros"}, "beta_initializer": {"config": {}, "class_name": "Zeros"}, "moving_variance_initializer": {"config": {}, "class_name": "Ones"}, "epsilon": 0.001, "gamma_constraint": null, "name": "batch_normalization_3", "scale": true, "center": true, "momentum": 0.99}, "class_name": "BatchNormalization", "name": "batch_normalization_3"}, {"inbound_nodes": [[["batch_normalization_3", 0, 0, {}]]], "config": {"trainable": true, "activation": "relu", "name": "activation_1"}, "class_name": "Activation", "name": "activation_1"}, {"inbound_nodes": [[["activation_1", 0, 0, {}]]], "config": {"kernel_size": [3, 3], "trainable": true, "activation": "relu", "kernel_regularizer": {"config": {"l2": 9.999999747378752e-05, "l1": 0.0}, "class_name": "L1L2"}, "dilation_rate": [1, 1], "padding": "same", "strides": [1, 1], "activity_regularizer": null, "kernel_constraint": null, "bias_constraint": null, "data_format": "channels_last", "name": "conv2d_5", "use_bias": true, "bias_initializer": {"config": {}, "class_name": "Zeros"}, "bias_regularizer": null, "kernel_initializer": {"config": {"distribution": "uniform", "seed": null, "scale": 1.0, "mode": "fan_avg"}, "class_name": "VarianceScaling"}, "filters": 64}, "class_name": "Conv2D", "name": "conv2d_5"}, {"inbound_nodes": [[["conv2d_5", 0, 0, {}]]], "config": {"gamma_regularizer": null, "trainable": true, "axis": -1, "gamma_initializer": {"config": {}, "class_name": "Ones"}, "beta_regularizer": null, "beta_constraint": null, "moving_mean_initializer": {"config": {}, "class_name": "Zeros"}, "beta_initializer": {"config": {}, "class_name": "Zeros"}, "moving_variance_initializer": {"config": {}, "class_name": "Ones"}, "epsilon": 0.001, "gamma_constraint": null, "name": "batch_normalization_4", "scale": true, "center": true, "momentum": 0.99}, "class_name": "BatchNormalization", "name": "batch_normalization_4"}, {"inbound_nodes": [[["batch_normalization_4", 0, 0, {}]]], "config": {"kernel_size": [3, 3], "trainable": true, "activation": "relu", "kernel_regularizer": {"config": {"l2": 9.999999747378752e-05, "l1": 0.0}, "class_name": "L1L2"}, "dilation_rate": [1, 1], "padding": "same", "strides": [1, 1], "activity_regularizer": null, "kernel_constraint": null, "bias_constraint": null, "data_format": "channels_last", "name": "conv2d_6", "use_bias": true, "bias_initializer": {"config": {}, "class_name": "Zeros"}, "bias_regularizer": null, "kernel_initializer": {"config": {"distribution": "uniform", "seed": null, "scale": 1.0, "mode": "fan_avg"}, "class_name": "VarianceScaling"}, "filters": 64}, "class_name": "Conv2D", "name": "conv2d_6"}, {"inbound_nodes": [[["conv2d_6", 0, 0, {}], ["activation_1", 0, 0, {}]]], "config": {"trainable": true, "name": "add_2"}, "class_name": "Add", "name": "add_2"}, {"inbound_nodes": [[["add_2", 0, 0, {}]]], "config": {"gamma_regularizer": null, "trainable": true, "axis": -1, "gamma_initializer": {"config": {}, "class_name": "Ones"}, "beta_regularizer": null, "beta_constraint": null, "moving_mean_initializer": {"config": {}, "class_name": "Zeros"}, "beta_initializer": {"config": {}, "class_name": "Zeros"}, "moving_variance_initializer": {"config": {}, "class_name": "Ones"}, "epsilon": 0.001, "gamma_constraint": null, "name": "batch_normalization_5", "scale": true, "center": true, "momentum": 0.99}, "class_name": "BatchNormalization", "name": "batch_normalization_5"}, {"inbound_nodes": [[["batch_normalization_5", 0, 0, {}]]], "config": {"trainable": true, "activation": "relu", "name": "activation_2"}, "class_name": "Activation", "name": "activation_2"}, {"inbound_nodes": [[["activation_2", 0, 0, {}]]], "config": {"kernel_size": [3, 3], "trainable": true, "activation": "relu", "kernel_regularizer": {"config": {"l2": 9.999999747378752e-05, "l1": 0.0}, "class_name": "L1L2"}, "dilation_rate": [1, 1], "padding": "same", "strides": [1, 1], "activity_regularizer": null, "kernel_constraint": null, "bias_constraint": null, "data_format": "channels_last", "name": "conv2d_7", "use_bias": true, "bias_initializer": {"config": {}, "class_name": "Zeros"}, "bias_regularizer": null, "kernel_initializer": {"config": {"distribution": "uniform", "seed": null, "scale": 1.0, "mode": "fan_avg"}, "class_name": "VarianceScaling"}, "filters": 64}, "class_name": "Conv2D", "name": "conv2d_7"}, {"inbound_nodes": [[["conv2d_7", 0, 0, {}]]], "config": {"gamma_regularizer": null, "trainable": true, "axis": -1, "gamma_initializer": {"config": {}, "class_name": "Ones"}, "beta_regularizer": null, "beta_constraint": null, "moving_mean_initializer": {"config": {}, "class_name": "Zeros"}, "beta_initializer": {"config": {}, "class_name": "Zeros"}, "moving_variance_initializer": {"config": {}, "class_name": "Ones"}, "epsilon": 0.001, "gamma_constraint": null, "name": "batch_normalization_6", "scale": true, "center": true, "momentum": 0.99}, "class_name": "BatchNormalization", "name": "batch_normalization_6"}, {"inbound_nodes": [[["batch_normalization_6", 0, 0, {}]]], "config": {"kernel_size": [3, 3], "trainable": true, "activation": "relu", "kernel_regularizer": {"config": {"l2": 9.999999747378752e-05, "l1": 0.0}, "class_name": "L1L2"}, "dilation_rate": [1, 1], "padding": "same", "strides": [1, 1], "activity_regularizer": null, "kernel_constraint": null, "bias_constraint": null, "data_format": "channels_last", "name": "conv2d_8", "use_bias": true, "bias_initializer": {"config": {}, "class_name": "Zeros"}, "bias_regularizer": null, "kernel_initializer": {"config": {"distribution": "uniform", "seed": null, "scale": 1.0, "mode": "fan_avg"}, "class_name": "VarianceScaling"}, "filters": 64}, "class_name": "Conv2D", "name": "conv2d_8"}, {"inbound_nodes": [[["conv2d_8", 0, 0, {}], ["activation_2", 0, 0, {}]]], "config": {"trainable": true, "name": "add_3"}, "class_name": "Add", "name": "add_3"}, {"inbound_nodes": [[["add_3", 0, 0, {}]]], "config": {"gamma_regularizer": null, "trainable": true, "axis": -1, "gamma_initializer": {"config": {}, "class_name": "Ones"}, "beta_regularizer": null, "beta_constraint": null, "moving_mean_initializer": {"config": {}, "class_name": "Zeros"}, "beta_initializer": {"config": {}, "class_name": "Zeros"}, "moving_variance_initializer": {"config": {}, "class_name": "Ones"}, "epsilon": 0.001, "gamma_constraint": null, "name": "batch_normalization_7", "scale": true, "center": true, "momentum": 0.99}, "class_name": "BatchNormalization", "name": "batch_normalization_7"}, {"inbound_nodes": [[["batch_normalization_7", 0, 0, {}]]], "config": {"trainable": true, "activation": "relu", "name": "activation_3"}, "class_name": "Activation", "name": "activation_3"}, {"inbound_nodes": [[["activation_3", 0, 0, {}]]], "config": {"trainable": true, "data_format": "channels_last", "name": "max_pooling2d_2", "pool_size": [2, 2], "strides": [2, 2], "padding": "valid"}, "class_name": "MaxPooling2D", "name": "max_pooling2d_2"}, {"inbound_nodes": [[["max_pooling2d_2", 0, 0, {}]]], "config": {"kernel_size": [3, 3], "trainable": true, "activation": "relu", "kernel_regularizer": {"config": {"l2": 9.999999747378752e-05, "l1": 0.0}, "class_name": "L1L2"}, "dilation_rate": [1, 1], "padding": "same", "strides": [2, 2], "activity_regularizer": null, "kernel_constraint": null, "bias_constraint": null, "data_format": "channels_last", "name": "conv2d_9", "use_bias": true, "bias_initializer": {"config": {}, "class_name": "Zeros"}, "bias_regularizer": null, "kernel_initializer": {"config": {"distribution": "uniform", "seed": null, "scale": 1.0, "mode": "fan_avg"}, "class_name": "VarianceScaling"}, "filters": 128}, "class_name": "Conv2D", "name": "conv2d_9"}, {"inbound_nodes": [[["conv2d_9", 0, 0, {}]]], "config": {"gamma_regularizer": null, "trainable": true, "axis": -1, "gamma_initializer": {"config": {}, "class_name": "Ones"}, "beta_regularizer": null, "beta_constraint": null, "moving_mean_initializer": {"config": {}, "class_name": "Zeros"}, "beta_initializer": {"config": {}, "class_name": "Zeros"}, "moving_variance_initializer": {"config": {}, "class_name": "Ones"}, "epsilon": 0.001, "gamma_constraint": null, "name": "batch_normalization_8", "scale": true, "center": true, "momentum": 0.99}, "class_name": "BatchNormalization", "name": "batch_normalization_8"}, {"inbound_nodes": [[["batch_normalization_8", 0, 0, {}]]], "config": {"kernel_size": [3, 3], "trainable": true, "activation": "relu", "kernel_regularizer": {"config": {"l2": 9.999999747378752e-05, "l1": 0.0}, "class_name": "L1L2"}, "dilation_rate": [1, 1], "padding": "same", "strides": [1, 1], "activity_regularizer": null, "kernel_constraint": null, "bias_constraint": null, "data_format": "channels_last", "name": "conv2d_10", "use_bias": true, "bias_initializer": {"config": {}, "class_name": "Zeros"}, "bias_regularizer": null, "kernel_initializer": {"config": {"distribution": "uniform", "seed": null, "scale": 1.0, "mode": "fan_avg"}, "class_name": "VarianceScaling"}, "filters": 128}, "class_name": "Conv2D", "name": "conv2d_10"}, {"inbound_nodes": [[["max_pooling2d_2", 0, 0, {}]]], "config": {"kernel_size": [1, 1], "trainable": true, "activation": "relu", "kernel_regularizer": {"config": {"l2": 9.999999747378752e-05, "l1": 0.0}, "class_name": "L1L2"}, "dilation_rate": [1, 1], "padding": "same", "strides": [2, 2], "activity_regularizer": null, "kernel_constraint": null, "bias_constraint": null, "data_format": "channels_last", "name": "conv2d_11", "use_bias": true, "bias_initializer": {"config": {}, "class_name": "Zeros"}, "bias_regularizer": null, "kernel_initializer": {"config": {"distribution": "uniform", "seed": null, "scale": 1.0, "mode": "fan_avg"}, "class_name": "VarianceScaling"}, "filters": 128}, "class_name": "Conv2D", "name": "conv2d_11"}, {"inbound_nodes": [[["conv2d_10", 0, 0, {}], ["conv2d_11", 0, 0, {}]]], "config": {"trainable": true, "name": "add_4"}, "class_name": "Add", "name": "add_4"}, {"inbound_nodes": [[["add_4", 0, 0, {}]]], "config": {"gamma_regularizer": null, "trainable": true, "axis": -1, "gamma_initializer": {"config": {}, "class_name": "Ones"}, "beta_regularizer": null, "beta_constraint": null, "moving_mean_initializer": {"config": {}, "class_name": "Zeros"}, "beta_initializer": {"config": {}, "class_name": "Zeros"}, "moving_variance_initializer": {"config": {}, "class_name": "Ones"}, "epsilon": 0.001, "gamma_constraint": null, "name": "batch_normalization_9", "scale": true, "center": true, "momentum": 0.99}, "class_name": "BatchNormalization", "name": "batch_normalization_9"}, {"inbound_nodes": [[["batch_normalization_9", 0, 0, {}]]], "config": {"trainable": true, "activation": "relu", "name": "activation_4"}, "class_name": "Activation", "name": "activation_4"}, {"inbound_nodes": [[["activation_4", 0, 0, {}]]], "config": {"kernel_size": [3, 3], "trainable": true, "activation": "relu", "kernel_regularizer": {"config": {"l2": 9.999999747378752e-05, "l1": 0.0}, "class_name": "L1L2"}, "dilation_rate": [1, 1], "padding": "same", "strides": [1, 1], "activity_regularizer": null, "kernel_constraint": null, "bias_constraint": null, "data_format": "channels_last", "name": "conv2d_12", "use_bias": true, "bias_initializer": {"config": {}, "class_name": "Zeros"}, "bias_regularizer": null, "kernel_initializer": {"config": {"distribution": "uniform", "seed": null, "scale": 1.0, "mode": "fan_avg"}, "class_name": "VarianceScaling"}, "filters": 128}, "class_name": "Conv2D", "name": "conv2d_12"}, {"inbound_nodes": [[["conv2d_12", 0, 0, {}]]], "config": {"gamma_regularizer": null, "trainable": true, "axis": -1, "gamma_initializer": {"config": {}, "class_name": "Ones"}, "beta_regularizer": null, "beta_constraint": null, "moving_mean_initializer": {"config": {}, "class_name": "Zeros"}, "beta_initializer": {"config": {}, "class_name": "Zeros"}, "moving_variance_initializer": {"config": {}, "class_name": "Ones"}, "epsilon": 0.001, "gamma_constraint": null, "name": "batch_normalization_10", "scale": true, "center": true, "momentum": 0.99}, "class_name": "BatchNormalization", "name": "batch_normalization_10"}, {"inbound_nodes": [[["batch_normalization_10", 0, 0, {}]]], "config": {"kernel_size": [3, 3], "trainable": true, "activation": "relu", "kernel_regularizer": {"config": {"l2": 9.999999747378752e-05, "l1": 0.0}, "class_name": "L1L2"}, "dilation_rate": [1, 1], "padding": "same", "strides": [1, 1], "activity_regularizer": null, "kernel_constraint": null, "bias_constraint": null, "data_format": "channels_last", "name": "conv2d_13", "use_bias": true, "bias_initializer": {"config": {}, "class_name": "Zeros"}, "bias_regularizer": null, "kernel_initializer": {"config": {"distribution": "uniform", "seed": null, "scale": 1.0, "mode": "fan_avg"}, "class_name": "VarianceScaling"}, "filters": 128}, "class_name": "Conv2D", "name": "conv2d_13"}, {"inbound_nodes": [[["conv2d_13", 0, 0, {}], ["activation_4", 0, 0, {}]]], "config": {"trainable": true, "name": "add_5"}, "class_name": "Add", "name": "add_5"}, {"inbound_nodes": [[["add_5", 0, 0, {}]]], "config": {"gamma_regularizer": null, "trainable": true, "axis": -1, "gamma_initializer": {"config": {}, "class_name": "Ones"}, "beta_regularizer": null, "beta_constraint": null, "moving_mean_initializer": {"config": {}, "class_name": "Zeros"}, "beta_initializer": {"config": {}, "class_name": "Zeros"}, "moving_variance_initializer": {"config": {}, "class_name": "Ones"}, "epsilon": 0.001, "gamma_constraint": null, "name": "batch_normalization_11", "scale": true, "center": true, "momentum": 0.99}, "class_name": "BatchNormalization", "name": "batch_normalization_11"}, {"inbound_nodes": [[["batch_normalization_11", 0, 0, {}]]], "config": {"trainable": true, "activation": "relu", "name": "activation_5"}, "class_name": "Activation", "name": "activation_5"}, {"inbound_nodes": [[["activation_5", 0, 0, {}]]], "config": {"kernel_size": [3, 3], "trainable": true, "activation": "relu", "kernel_regularizer": {"config": {"l2": 9.999999747378752e-05, "l1": 0.0}, "class_name": "L1L2"}, "dilation_rate": [1, 1], "padding": "same", "strides": [1, 1], "activity_regularizer": null, "kernel_constraint": null, "bias_constraint": null, "data_format": "channels_last", "name": "conv2d_14", "use_bias": true, "bias_initializer": {"config": {}, "class_name": "Zeros"}, "bias_regularizer": null, "kernel_initializer": {"config": {"distribution": "uniform", "seed": null, "scale": 1.0, "mode": "fan_avg"}, "class_name": "VarianceScaling"}, "filters": 128}, "class_name": "Conv2D", "name": "conv2d_14"}, {"inbound_nodes": [[["conv2d_14", 0, 0, {}]]], "config": {"gamma_regularizer": null, "trainable": true, "axis": -1, "gamma_initializer": {"config": {}, "class_name": "Ones"}, "beta_regularizer": null, "beta_constraint": null, "moving_mean_initializer": {"config": {}, "class_name": "Zeros"}, "beta_initializer": {"config": {}, "class_name": "Zeros"}, "moving_variance_initializer": {"config": {}, "class_name": "Ones"}, "epsilon": 0.001, "gamma_constraint": null, "name": "batch_normalization_12", "scale": true, "center": true, "momentum": 0.99}, "class_name": "BatchNormalization", "name": "batch_normalization_12"}, {"inbound_nodes": [[["batch_normalization_12", 0, 0, {}]]], "config": {"kernel_size": [3, 3], "trainable": true, "activation": "relu", "kernel_regularizer": {"config": {"l2": 9.999999747378752e-05, "l1": 0.0}, "class_name": "L1L2"}, "dilation_rate": [1, 1], "padding": "same", "strides": [1, 1], "activity_regularizer": null, "kernel_constraint": null, "bias_constraint": null, "data_format": "channels_last", "name": "conv2d_15", "use_bias": true, "bias_initializer": {"config": {}, "class_name": "Zeros"}, "bias_regularizer": null, "kernel_initializer": {"config": {"distribution": "uniform", "seed": null, "scale": 1.0, "mode": "fan_avg"}, "class_name": "VarianceScaling"}, "filters": 128}, "class_name": "Conv2D", "name": "conv2d_15"}, {"inbound_nodes": [[["conv2d_15", 0, 0, {}], ["activation_5", 0, 0, {}]]], "config": {"trainable": true, "name": "add_6"}, "class_name": "Add", "name": "add_6"}, {"inbound_nodes": [[["add_6", 0, 0, {}]]], "config": {"gamma_regularizer": null, "trainable": true, "axis": -1, "gamma_initializer": {"config": {}, "class_name": "Ones"}, "beta_regularizer": null, "beta_constraint": null, "moving_mean_initializer": {"config": {}, "class_name": "Zeros"}, "beta_initializer": {"config": {}, "class_name": "Zeros"}, "moving_variance_initializer": {"config": {}, "class_name": "Ones"}, "epsilon": 0.001, "gamma_constraint": null, "name": "batch_normalization_13", "scale": true, "center": true, "momentum": 0.99}, "class_name": "BatchNormalization", "name": "batch_normalization_13"}, {"inbound_nodes": [[["batch_normalization_13", 0, 0, {}]]], "config": {"trainable": true, "activation": "relu", "name": "activation_6"}, "class_name": "Activation", "name": "activation_6"}, {"inbound_nodes": [[["activation_6", 0, 0, {}]]], "config": {"kernel_size": [3, 3], "trainable": true, "activation": "relu", "kernel_regularizer": {"config": {"l2": 9.999999747378752e-05, "l1": 0.0}, "class_name": "L1L2"}, "dilation_rate": [1, 1], "padding": "same", "strides": [1, 1], "activity_regularizer": null, "kernel_constraint": null, "bias_constraint": null, "data_format": "channels_last", "name": "conv2d_16", "use_bias": true, "bias_initializer": {"config": {}, "class_name": "Zeros"}, "bias_regularizer": null, "kernel_initializer": {"config": {"distribution": "uniform", "seed": null, "scale": 1.0, "mode": "fan_avg"}, "class_name": "VarianceScaling"}, "filters": 128}, "class_name": "Conv2D", "name": "conv2d_16"}, {"inbound_nodes": [[["conv2d_16", 0, 0, {}]]], "config": {"gamma_regularizer": null, "trainable": true, "axis": -1, "gamma_initializer": {"config": {}, "class_name": "Ones"}, "beta_regularizer": null, "beta_constraint": null, "moving_mean_initializer": {"config": {}, "class_name": "Zeros"}, "beta_initializer": {"config": {}, "class_name": "Zeros"}, "moving_variance_initializer": {"config": {}, "class_name": "Ones"}, "epsilon": 0.001, "gamma_constraint": null, "name": "batch_normalization_14", "scale": true, "center": true, "momentum": 0.99}, "class_name": "BatchNormalization", "name": "batch_normalization_14"}, {"inbound_nodes": [[["batch_normalization_14", 0, 0, {}]]], "config": {"kernel_size": [3, 3], "trainable": true, "activation": "relu", "kernel_regularizer": {"config": {"l2": 9.999999747378752e-05, "l1": 0.0}, "class_name": "L1L2"}, "dilation_rate": [1, 1], "padding": "same", "strides": [1, 1], "activity_regularizer": null, "kernel_constraint": null, "bias_constraint": null, "data_format": "channels_last", "name": "conv2d_17", "use_bias": true, "bias_initializer": {"config": {}, "class_name": "Zeros"}, "bias_regularizer": null, "kernel_initializer": {"config": {"distribution": "uniform", "seed": null, "scale": 1.0, "mode": "fan_avg"}, "class_name": "VarianceScaling"}, "filters": 128}, "class_name": "Conv2D", "name": "conv2d_17"}, {"inbound_nodes": [[["conv2d_17", 0, 0, {}], ["activation_6", 0, 0, {}]]], "config": {"trainable": true, "name": "add_7"}, "class_name": "Add", "name": "add_7"}, {"inbound_nodes": [[["add_7", 0, 0, {}]]], "config": {"gamma_regularizer": null, "trainable": true, "axis": -1, "gamma_initializer": {"config": {}, "class_name": "Ones"}, "beta_regularizer": null, "beta_constraint": null, "moving_mean_initializer": {"config": {}, "class_name": "Zeros"}, "beta_initializer": {"config": {}, "class_name": "Zeros"}, "moving_variance_initializer": {"config": {}, "class_name": "Ones"}, "epsilon": 0.001, "gamma_constraint": null, "name": "batch_normalization_15", "scale": true, "center": true, "momentum": 0.99}, "class_name": "BatchNormalization", "name": "batch_normalization_15"}, {"inbound_nodes": [[["batch_normalization_15", 0, 0, {}]]], "config": {"trainable": true, "activation": "relu", "name": "activation_7"}, "class_name": "Activation", "name": "activation_7"}, {"inbound_nodes": [[["activation_7", 0, 0, {}]]], "config": {"trainable": true, "data_format": "channels_last", "name": "max_pooling2d_3", "pool_size": [2, 2], "strides": [2, 2], "padding": "valid"}, "class_name": "MaxPooling2D", "name": "max_pooling2d_3"}, {"inbound_nodes": [[["max_pooling2d_3", 0, 0, {}]]], "config": {"kernel_size": [3, 3], "trainable": true, "activation": "relu", "kernel_regularizer": {"config": {"l2": 9.999999747378752e-05, "l1": 0.0}, "class_name": "L1L2"}, "dilation_rate": [1, 1], "padding": "same", "strides": [2, 2], "activity_regularizer": null, "kernel_constraint": null, "bias_constraint": null, "data_format": "channels_last", "name": "conv2d_18", "use_bias": true, "bias_initializer": {"config": {}, "class_name": "Zeros"}, "bias_regularizer": null, "kernel_initializer": {"config": {"distribution": "uniform", "seed": null, "scale": 1.0, "mode": "fan_avg"}, "class_name": "VarianceScaling"}, "filters": 256}, "class_name": "Conv2D", "name": "conv2d_18"}, {"inbound_nodes": [[["conv2d_18", 0, 0, {}]]], "config": {"gamma_regularizer": null, "trainable": true, "axis": -1, "gamma_initializer": {"config": {}, "class_name": "Ones"}, "beta_regularizer": null, "beta_constraint": null, "moving_mean_initializer": {"config": {}, "class_name": "Zeros"}, "beta_initializer": {"config": {}, "class_name": "Zeros"}, "moving_variance_initializer": {"config": {}, "class_name": "Ones"}, "epsilon": 0.001, "gamma_constraint": null, "name": "batch_normalization_16", "scale": true, "center": true, "momentum": 0.99}, "class_name": "BatchNormalization", "name": "batch_normalization_16"}, {"inbound_nodes": [[["batch_normalization_16", 0, 0, {}]]], "config": {"kernel_size": [3, 3], "trainable": true, "activation": "relu", "kernel_regularizer": {"config": {"l2": 9.999999747378752e-05, "l1": 0.0}, "class_name": "L1L2"}, "dilation_rate": [1, 1], "padding": "same", "strides": [1, 1], "activity_regularizer": null, "kernel_constraint": null, "bias_constraint": null, "data_format": "channels_last", "name": "conv2d_19", "use_bias": true, "bias_initializer": {"config": {}, "class_name": "Zeros"}, "bias_regularizer": null, "kernel_initializer": {"config": {"distribution": "uniform", "seed": null, "scale": 1.0, "mode": "fan_avg"}, "class_name": "VarianceScaling"}, "filters": 256}, "class_name": "Conv2D", "name": "conv2d_19"}, {"inbound_nodes": [[["max_pooling2d_3", 0, 0, {}]]], "config": {"kernel_size": [1, 1], "trainable": true, "activation": "relu", "kernel_regularizer": {"config": {"l2": 9.999999747378752e-05, "l1": 0.0}, "class_name": "L1L2"}, "dilation_rate": [1, 1], "padding": "same", "strides": [2, 2], "activity_regularizer": null, "kernel_constraint": null, "bias_constraint": null, "data_format": "channels_last", "name": "conv2d_20", "use_bias": true, "bias_initializer": {"config": {}, "class_name": "Zeros"}, "bias_regularizer": null, "kernel_initializer": {"config": {"distribution": "uniform", "seed": null, "scale": 1.0, "mode": "fan_avg"}, "class_name": "VarianceScaling"}, "filters": 256}, "class_name": "Conv2D", "name": "conv2d_20"}, {"inbound_nodes": [[["conv2d_19", 0, 0, {}], ["conv2d_20", 0, 0, {}]]], "config": {"trainable": true, "name": "add_8"}, "class_name": "Add", "name": "add_8"}, {"inbound_nodes": [[["add_8", 0, 0, {}]]], "config": {"gamma_regularizer": null, "trainable": true, "axis": -1, "gamma_initializer": {"config": {}, "class_name": "Ones"}, "beta_regularizer": null, "beta_constraint": null, "moving_mean_initializer": {"config": {}, "class_name": "Zeros"}, "beta_initializer": {"config": {}, "class_name": "Zeros"}, "moving_variance_initializer": {"config": {}, "class_name": "Ones"}, "epsilon": 0.001, "gamma_constraint": null, "name": "batch_normalization_17", "scale": true, "center": true, "momentum": 0.99}, "class_name": "BatchNormalization", "name": "batch_normalization_17"}, {"inbound_nodes": [[["batch_normalization_17", 0, 0, {}]]], "config": {"trainable": true, "activation": "relu", "name": "activation_8"}, "class_name": "Activation", "name": "activation_8"}, {"inbound_nodes": [[["activation_8", 0, 0, {}]]], "config": {"kernel_size": [3, 3], "trainable": true, "activation": "relu", "kernel_regularizer": {"config": {"l2": 9.999999747378752e-05, "l1": 0.0}, "class_name": "L1L2"}, "dilation_rate": [1, 1], "padding": "same", "strides": [1, 1], "activity_regularizer": null, "kernel_constraint": null, "bias_constraint": null, "data_format": "channels_last", "name": "conv2d_21", "use_bias": true, "bias_initializer": {"config": {}, "class_name": "Zeros"}, "bias_regularizer": null, "kernel_initializer": {"config": {"distribution": "uniform", "seed": null, "scale": 1.0, "mode": "fan_avg"}, "class_name": "VarianceScaling"}, "filters": 256}, "class_name": "Conv2D", "name": "conv2d_21"}, {"inbound_nodes": [[["conv2d_21", 0, 0, {}]]], "config": {"gamma_regularizer": null, "trainable": true, "axis": -1, "gamma_initializer": {"config": {}, "class_name": "Ones"}, "beta_regularizer": null, "beta_constraint": null, "moving_mean_initializer": {"config": {}, "class_name": "Zeros"}, "beta_initializer": {"config": {}, "class_name": "Zeros"}, "moving_variance_initializer": {"config": {}, "class_name": "Ones"}, "epsilon": 0.001, "gamma_constraint": null, "name": "batch_normalization_18", "scale": true, "center": true, "momentum": 0.99}, "class_name": "BatchNormalization", "name": "batch_normalization_18"}, {"inbound_nodes": [[["batch_normalization_18", 0, 0, {}]]], "config": {"kernel_size": [3, 3], "trainable": true, "activation": "relu", "kernel_regularizer": {"config": {"l2": 9.999999747378752e-05, "l1": 0.0}, "class_name": "L1L2"}, "dilation_rate": [1, 1], "padding": "same", "strides": [1, 1], "activity_regularizer": null, "kernel_constraint": null, "bias_constraint": null, "data_format": "channels_last", "name": "conv2d_22", "use_bias": true, "bias_initializer": {"config": {}, "class_name": "Zeros"}, "bias_regularizer": null, "kernel_initializer": {"config": {"distribution": "uniform", "seed": null, "scale": 1.0, "mode": "fan_avg"}, "class_name": "VarianceScaling"}, "filters": 256}, "class_name": "Conv2D", "name": "conv2d_22"}, {"inbound_nodes": [[["conv2d_22", 0, 0, {}], ["activation_8", 0, 0, {}]]], "config": {"trainable": true, "name": "add_9"}, "class_name": "Add", "name": "add_9"}, {"inbound_nodes": [[["add_9", 0, 0, {}]]], "config": {"gamma_regularizer": null, "trainable": true, "axis": -1, "gamma_initializer": {"config": {}, "class_name": "Ones"}, "beta_regularizer": null, "beta_constraint": null, "moving_mean_initializer": {"config": {}, "class_name": "Zeros"}, "beta_initializer": {"config": {}, "class_name": "Zeros"}, "moving_variance_initializer": {"config": {}, "class_name": "Ones"}, "epsilon": 0.001, "gamma_constraint": null, "name": "batch_normalization_19", "scale": true, "center": true, "momentum": 0.99}, "class_name": "BatchNormalization", "name": "batch_normalization_19"}, {"inbound_nodes": [[["batch_normalization_19", 0, 0, {}]]], "config": {"trainable": true, "activation": "relu", "name": "activation_9"}, "class_name": "Activation", "name": "activation_9"}, {"inbound_nodes": [[["activation_9", 0, 0, {}]]], "config": {"kernel_size": [3, 3], "trainable": true, "activation": "relu", "kernel_regularizer": {"config": {"l2": 9.999999747378752e-05, "l1": 0.0}, "class_name": "L1L2"}, "dilation_rate": [1, 1], "padding": "same", "strides": [1, 1], "activity_regularizer": null, "kernel_constraint": null, "bias_constraint": null, "data_format": "channels_last", "name": "conv2d_23", "use_bias": true, "bias_initializer": {"config": {}, "class_name": "Zeros"}, "bias_regularizer": null, "kernel_initializer": {"config": {"distribution": "uniform", "seed": null, "scale": 1.0, "mode": "fan_avg"}, "class_name": "VarianceScaling"}, "filters": 256}, "class_name": "Conv2D", "name": "conv2d_23"}, {"inbound_nodes": [[["conv2d_23", 0, 0, {}]]], "config": {"gamma_regularizer": null, "trainable": true, "axis": -1, "gamma_initializer": {"config": {}, "class_name": "Ones"}, "beta_regularizer": null, "beta_constraint": null, "moving_mean_initializer": {"config": {}, "class_name": "Zeros"}, "beta_initializer": {"config": {}, "class_name": "Zeros"}, "moving_variance_initializer": {"config": {}, "class_name": "Ones"}, "epsilon": 0.001, "gamma_constraint": null, "name": "batch_normalization_20", "scale": true, "center": true, "momentum": 0.99}, "class_name": "BatchNormalization", "name": "batch_normalization_20"}, {"inbound_nodes": [[["batch_normalization_20", 0, 0, {}]]], "config": {"kernel_size": [3, 3], "trainable": true, "activation": "relu", "kernel_regularizer": {"config": {"l2": 9.999999747378752e-05, "l1": 0.0}, "class_name": "L1L2"}, "dilation_rate": [1, 1], "padding": "same", "strides": [1, 1], "activity_regularizer": null, "kernel_constraint": null, "bias_constraint": null, "data_format": "channels_last", "name": "conv2d_24", "use_bias": true, "bias_initializer": {"config": {}, "class_name": "Zeros"}, "bias_regularizer": null, "kernel_initializer": {"config": {"distribution": "uniform", "seed": null, "scale": 1.0, "mode": "fan_avg"}, "class_name": "VarianceScaling"}, "filters": 256}, "class_name": "Conv2D", "name": "conv2d_24"}, {"inbound_nodes": [[["conv2d_24", 0, 0, {}], ["activation_9", 0, 0, {}]]], "config": {"trainable": true, "name": "add_10"}, "class_name": "Add", "name": "add_10"}, {"inbound_nodes": [[["add_10", 0, 0, {}]]], "config": {"gamma_regularizer": null, "trainable": true, "axis": -1, "gamma_initializer": {"config": {}, "class_name": "Ones"}, "beta_regularizer": null, "beta_constraint": null, "moving_mean_initializer": {"config": {}, "class_name": "Zeros"}, "beta_initializer": {"config": {}, "class_name": "Zeros"}, "moving_variance_initializer": {"config": {}, "class_name": "Ones"}, "epsilon": 0.001, "gamma_constraint": null, "name": "batch_normalization_21", "scale": true, "center": true, "momentum": 0.99}, "class_name": "BatchNormalization", "name": "batch_normalization_21"}, {"inbound_nodes": [[["batch_normalization_21", 0, 0, {}]]], "config": {"trainable": true, "activation": "relu", "name": "activation_10"}, "class_name": "Activation", "name": "activation_10"}, {"inbound_nodes": [[["activation_10", 0, 0, {}]]], "config": {"kernel_size": [3, 3], "trainable": true, "activation": "relu", "kernel_regularizer": {"config": {"l2": 9.999999747378752e-05, "l1": 0.0}, "class_name": "L1L2"}, "dilation_rate": [1, 1], "padding": "same", "strides": [1, 1], "activity_regularizer": null, "kernel_constraint": null, "bias_constraint": null, "data_format": "channels_last", "name": "conv2d_25", "use_bias": true, "bias_initializer": {"config": {}, "class_name": "Zeros"}, "bias_regularizer": null, "kernel_initializer": {"config": {"distribution": "uniform", "seed": null, "scale": 1.0, "mode": "fan_avg"}, "class_name": "VarianceScaling"}, "filters": 256}, "class_name": "Conv2D", "name": "conv2d_25"}, {"inbound_nodes": [[["conv2d_25", 0, 0, {}]]], "config": {"gamma_regularizer": null, "trainable": true, "axis": -1, "gamma_initializer": {"config": {}, "class_name": "Ones"}, "beta_regularizer": null, "beta_constraint": null, "moving_mean_initializer": {"config": {}, "class_name": "Zeros"}, "beta_initializer": {"config": {}, "class_name": "Zeros"}, "moving_variance_initializer": {"config": {}, "class_name": "Ones"}, "epsilon": 0.001, "gamma_constraint": null, "name": "batch_normalization_22", "scale": true, "center": true, "momentum": 0.99}, "class_name": "BatchNormalization", "name": "batch_normalization_22"}, {"inbound_nodes": [[["batch_normalization_22", 0, 0, {}]]], "config": {"kernel_size": [3, 3], "trainable": true, "activation": "relu", "kernel_regularizer": {"config": {"l2": 9.999999747378752e-05, "l1": 0.0}, "class_name": "L1L2"}, "dilation_rate": [1, 1], "padding": "same", "strides": [1, 1], "activity_regularizer": null, "kernel_constraint": null, "bias_constraint": null, "data_format": "channels_last", "name": "conv2d_26", "use_bias": true, "bias_initializer": {"config": {}, "class_name": "Zeros"}, "bias_regularizer": null, "kernel_initializer": {"config": {"distribution": "uniform", "seed": null, "scale": 1.0, "mode": "fan_avg"}, "class_name": "VarianceScaling"}, "filters": 256}, "class_name": "Conv2D", "name": "conv2d_26"}, {"inbound_nodes": [[["conv2d_26", 0, 0, {}], ["activation_10", 0, 0, {}]]], "config": {"trainable": true, "name": "add_11"}, "class_name": "Add", "name": "add_11"}, {"inbound_nodes": [[["add_11", 0, 0, {}]]], "config": {"gamma_regularizer": null, "trainable": true, "axis": -1, "gamma_initializer": {"config": {}, "class_name": "Ones"}, "beta_regularizer": null, "beta_constraint": null, "moving_mean_initializer": {"config": {}, "class_name": "Zeros"}, "beta_initializer": {"config": {}, "class_name": "Zeros"}, "moving_variance_initializer": {"config": {}, "class_name": "Ones"}, "epsilon": 0.001, "gamma_constraint": null, "name": "batch_normalization_23", "scale": true, "center": true, "momentum": 0.99}, "class_name": "BatchNormalization", "name": "batch_normalization_23"}, {"inbound_nodes": [[["batch_normalization_23", 0, 0, {}]]], "config": {"trainable": true, "activation": "relu", "name": "activation_11"}, "class_name": "Activation", "name": "activation_11"}, {"inbound_nodes": [[["activation_11", 0, 0, {}]]], "config": {"kernel_size": [3, 3], "trainable": true, "activation": "relu", "kernel_regularizer": {"config": {"l2": 9.999999747378752e-05, "l1": 0.0}, "class_name": "L1L2"}, "dilation_rate": [1, 1], "padding": "same", "strides": [1, 1], "activity_regularizer": null, "kernel_constraint": null, "bias_constraint": null, "data_format": "channels_last", "name": "conv2d_27", "use_bias": true, "bias_initializer": {"config": {}, "class_name": "Zeros"}, "bias_regularizer": null, "kernel_initializer": {"config": {"distribution": "uniform", "seed": null, "scale": 1.0, "mode": "fan_avg"}, "class_name": "VarianceScaling"}, "filters": 256}, "class_name": "Conv2D", "name": "conv2d_27"}, {"inbound_nodes": [[["conv2d_27", 0, 0, {}]]], "config": {"gamma_regularizer": null, "trainable": true, "axis": -1, "gamma_initializer": {"config": {}, "class_name": "Ones"}, "beta_regularizer": null, "beta_constraint": null, "moving_mean_initializer": {"config": {}, "class_name": "Zeros"}, "beta_initializer": {"config": {}, "class_name": "Zeros"}, "moving_variance_initializer": {"config": {}, "class_name": "Ones"}, "epsilon": 0.001, "gamma_constraint": null, "name": "batch_normalization_24", "scale": true, "center": true, "momentum": 0.99}, "class_name": "BatchNormalization", "name": "batch_normalization_24"}, {"inbound_nodes": [[["batch_normalization_24", 0, 0, {}]]], "config": {"kernel_size": [3, 3], "trainable": true, "activation": "relu", "kernel_regularizer": {"config": {"l2": 9.999999747378752e-05, "l1": 0.0}, "class_name": "L1L2"}, "dilation_rate": [1, 1], "padding": "same", "strides": [1, 1], "activity_regularizer": null, "kernel_constraint": null, "bias_constraint": null, "data_format": "channels_last", "name": "conv2d_28", "use_bias": true, "bias_initializer": {"config": {}, "class_name": "Zeros"}, "bias_regularizer": null, "kernel_initializer": {"config": {"distribution": "uniform", "seed": null, "scale": 1.0, "mode": "fan_avg"}, "class_name": "VarianceScaling"}, "filters": 256}, "class_name": "Conv2D", "name": "conv2d_28"}, {"inbound_nodes": [[["conv2d_28", 0, 0, {}], ["activation_11", 0, 0, {}]]], "config": {"trainable": true, "name": "add_12"}, "class_name": "Add", "name": "add_12"}, {"inbound_nodes": [[["add_12", 0, 0, {}]]], "config": {"gamma_regularizer": null, "trainable": true, "axis": -1, "gamma_initializer": {"config": {}, "class_name": "Ones"}, "beta_regularizer": null, "beta_constraint": null, "moving_mean_initializer": {"config": {}, "class_name": "Zeros"}, "beta_initializer": {"config": {}, "class_name": "Zeros"}, "moving_variance_initializer": {"config": {}, "class_name": "Ones"}, "epsilon": 0.001, "gamma_constraint": null, "name": "batch_normalization_25", "scale": true, "center": true, "momentum": 0.99}, "class_name": "BatchNormalization", "name": "batch_normalization_25"}, {"inbound_nodes": [[["batch_normalization_25", 0, 0, {}]]], "config": {"trainable": true, "activation": "relu", "name": "activation_12"}, "class_name": "Activation", "name": "activation_12"}, {"inbound_nodes": [[["activation_12", 0, 0, {}]]], "config": {"kernel_size": [3, 3], "trainable": true, "activation": "relu", "kernel_regularizer": {"config": {"l2": 9.999999747378752e-05, "l1": 0.0}, "class_name": "L1L2"}, "dilation_rate": [1, 1], "padding": "same", "strides": [1, 1], "activity_regularizer": null, "kernel_constraint": null, "bias_constraint": null, "data_format": "channels_last", "name": "conv2d_29", "use_bias": true, "bias_initializer": {"config": {}, "class_name": "Zeros"}, "bias_regularizer": null, "kernel_initializer": {"config": {"distribution": "uniform", "seed": null, "scale": 1.0, "mode": "fan_avg"}, "class_name": "VarianceScaling"}, "filters": 256}, "class_name": "Conv2D", "name": "conv2d_29"}, {"inbound_nodes": [[["conv2d_29", 0, 0, {}]]], "config": {"gamma_regularizer": null, "trainable": true, "axis": -1, "gamma_initializer": {"config": {}, "class_name": "Ones"}, "beta_regularizer": null, "beta_constraint": null, "moving_mean_initializer": {"config": {}, "class_name": "Zeros"}, "beta_initializer": {"config": {}, "class_name": "Zeros"}, "moving_variance_initializer": {"config": {}, "class_name": "Ones"}, "epsilon": 0.001, "gamma_constraint": null, "name": "batch_normalization_26", "scale": true, "center": true, "momentum": 0.99}, "class_name": "BatchNormalization", "name": "batch_normalization_26"}, {"inbound_nodes": [[["batch_normalization_26", 0, 0, {}]]], "config": {"kernel_size": [3, 3], "trainable": true, "activation": "relu", "kernel_regularizer": {"config": {"l2": 9.999999747378752e-05, "l1": 0.0}, "class_name": "L1L2"}, "dilation_rate": [1, 1], "padding": "same", "strides": [1, 1], "activity_regularizer": null, "kernel_constraint": null, "bias_constraint": null, "data_format": "channels_last", "name": "conv2d_30", "use_bias": true, "bias_initializer": {"config": {}, "class_name": "Zeros"}, "bias_regularizer": null, "kernel_initializer": {"config": {"distribution": "uniform", "seed": null, "scale": 1.0, "mode": "fan_avg"}, "class_name": "VarianceScaling"}, "filters": 256}, "class_name": "Conv2D", "name": "conv2d_30"}, {"inbound_nodes": [[["conv2d_30", 0, 0, {}], ["activation_12", 0, 0, {}]]], "config": {"trainable": true, "name": "add_13"}, "class_name": "Add", "name": "add_13"}, {"inbound_nodes": [[["add_13", 0, 0, {}]]], "config": {"gamma_regularizer": null, "trainable": true, "axis": -1, "gamma_initializer": {"config": {}, "class_name": "Ones"}, "beta_regularizer": null, "beta_constraint": null, "moving_mean_initializer": {"config": {}, "class_name": "Zeros"}, "beta_initializer": {"config": {}, "class_name": "Zeros"}, "moving_variance_initializer": {"config": {}, "class_name": "Ones"}, "epsilon": 0.001, "gamma_constraint": null, "name": "batch_normalization_27", "scale": true, "center": true, "momentum": 0.99}, "class_name": "BatchNormalization", "name": "batch_normalization_27"}, {"inbound_nodes": [[["batch_normalization_27", 0, 0, {}]]], "config": {"trainable": true, "activation": "relu", "name": "activation_13"}, "class_name": "Activation", "name": "activation_13"}, {"inbound_nodes": [[["activation_13", 0, 0, {}]]], "config": {"trainable": true, "data_format": "channels_last", "name": "max_pooling2d_4", "pool_size": [2, 2], "strides": [2, 2], "padding": "valid"}, "class_name": "MaxPooling2D", "name": "max_pooling2d_4"}, {"inbound_nodes": [[["max_pooling2d_4", 0, 0, {}]]], "config": {"kernel_size": [3, 3], "trainable": true, "activation": "relu", "kernel_regularizer": {"config": {"l2": 9.999999747378752e-05, "l1": 0.0}, "class_name": "L1L2"}, "dilation_rate": [1, 1], "padding": "same", "strides": [2, 2], "activity_regularizer": null, "kernel_constraint": null, "bias_constraint": null, "data_format": "channels_last", "name": "conv2d_31", "use_bias": true, "bias_initializer": {"config": {}, "class_name": "Zeros"}, "bias_regularizer": null, "kernel_initializer": {"config": {"distribution": "uniform", "seed": null, "scale": 1.0, "mode": "fan_avg"}, "class_name": "VarianceScaling"}, "filters": 512}, "class_name": "Conv2D", "name": "conv2d_31"}, {"inbound_nodes": [[["conv2d_31", 0, 0, {}]]], "config": {"gamma_regularizer": null, "trainable": true, "axis": -1, "gamma_initializer": {"config": {}, "class_name": "Ones"}, "beta_regularizer": null, "beta_constraint": null, "moving_mean_initializer": {"config": {}, "class_name": "Zeros"}, "beta_initializer": {"config": {}, "class_name": "Zeros"}, "moving_variance_initializer": {"config": {}, "class_name": "Ones"}, "epsilon": 0.001, "gamma_constraint": null, "name": "batch_normalization_28", "scale": true, "center": true, "momentum": 0.99}, "class_name": "BatchNormalization", "name": "batch_normalization_28"}, {"inbound_nodes": [[["batch_normalization_28", 0, 0, {}]]], "config": {"kernel_size": [3, 3], "trainable": true, "activation": "relu", "kernel_regularizer": {"config": {"l2": 9.999999747378752e-05, "l1": 0.0}, "class_name": "L1L2"}, "dilation_rate": [1, 1], "padding": "same", "strides": [1, 1], "activity_regularizer": null, "kernel_constraint": null, "bias_constraint": null, "data_format": "channels_last", "name": "conv2d_32", "use_bias": true, "bias_initializer": {"config": {}, "class_name": "Zeros"}, "bias_regularizer": null, "kernel_initializer": {"config": {"distribution": "uniform", "seed": null, "scale": 1.0, "mode": "fan_avg"}, "class_name": "VarianceScaling"}, "filters": 512}, "class_name": "Conv2D", "name": "conv2d_32"}, {"inbound_nodes": [[["max_pooling2d_4", 0, 0, {}]]], "config": {"kernel_size": [1, 1], "trainable": true, "activation": "relu", "kernel_regularizer": {"config": {"l2": 9.999999747378752e-05, "l1": 0.0}, "class_name": "L1L2"}, "dilation_rate": [1, 1], "padding": "same", "strides": [2, 2], "activity_regularizer": null, "kernel_constraint": null, "bias_constraint": null, "data_format": "channels_last", "name": "conv2d_33", "use_bias": true, "bias_initializer": {"config": {}, "class_name": "Zeros"}, "bias_regularizer": null, "kernel_initializer": {"config": {"distribution": "uniform", "seed": null, "scale": 1.0, "mode": "fan_avg"}, "class_name": "VarianceScaling"}, "filters": 512}, "class_name": "Conv2D", "name": "conv2d_33"}, {"inbound_nodes": [[["conv2d_32", 0, 0, {}], ["conv2d_33", 0, 0, {}]]], "config": {"trainable": true, "name": "add_14"}, "class_name": "Add", "name": "add_14"}, {"inbound_nodes": [[["add_14", 0, 0, {}]]], "config": {"gamma_regularizer": null, "trainable": true, "axis": -1, "gamma_initializer": {"config": {}, "class_name": "Ones"}, "beta_regularizer": null, "beta_constraint": null, "moving_mean_initializer": {"config": {}, "class_name": "Zeros"}, "beta_initializer": {"config": {}, "class_name": "Zeros"}, "moving_variance_initializer": {"config": {}, "class_name": "Ones"}, "epsilon": 0.001, "gamma_constraint": null, "name": "batch_normalization_29", "scale": true, "center": true, "momentum": 0.99}, "class_name": "BatchNormalization", "name": "batch_normalization_29"}, {"inbound_nodes": [[["batch_normalization_29", 0, 0, {}]]], "config": {"trainable": true, "activation": "relu", "name": "activation_14"}, "class_name": "Activation", "name": "activation_14"}, {"inbound_nodes": [[["activation_14", 0, 0, {}]]], "config": {"kernel_size": [3, 3], "trainable": true, "activation": "relu", "kernel_regularizer": {"config": {"l2": 9.999999747378752e-05, "l1": 0.0}, "class_name": "L1L2"}, "dilation_rate": [1, 1], "padding": "same", "strides": [1, 1], "activity_regularizer": null, "kernel_constraint": null, "bias_constraint": null, "data_format": "channels_last", "name": "conv2d_34", "use_bias": true, "bias_initializer": {"config": {}, "class_name": "Zeros"}, "bias_regularizer": null, "kernel_initializer": {"config": {"distribution": "uniform", "seed": null, "scale": 1.0, "mode": "fan_avg"}, "class_name": "VarianceScaling"}, "filters": 512}, "class_name": "Conv2D", "name": "conv2d_34"}, {"inbound_nodes": [[["conv2d_34", 0, 0, {}]]], "config": {"gamma_regularizer": null, "trainable": true, "axis": -1, "gamma_initializer": {"config": {}, "class_name": "Ones"}, "beta_regularizer": null, "beta_constraint": null, "moving_mean_initializer": {"config": {}, "class_name": "Zeros"}, "beta_initializer": {"config": {}, "class_name": "Zeros"}, "moving_variance_initializer": {"config": {}, "class_name": "Ones"}, "epsilon": 0.001, "gamma_constraint": null, "name": "batch_normalization_30", "scale": true, "center": true, "momentum": 0.99}, "class_name": "BatchNormalization", "name": "batch_normalization_30"}, {"inbound_nodes": [[["batch_normalization_30", 0, 0, {}]]], "config": {"kernel_size": [3, 3], "trainable": true, "activation": "relu", "kernel_regularizer": {"config": {"l2": 9.999999747378752e-05, "l1": 0.0}, "class_name": "L1L2"}, "dilation_rate": [1, 1], "padding": "same", "strides": [1, 1], "activity_regularizer": null, "kernel_constraint": null, "bias_constraint": null, "data_format": "channels_last", "name": "conv2d_35", "use_bias": true, "bias_initializer": {"config": {}, "class_name": "Zeros"}, "bias_regularizer": null, "kernel_initializer": {"config": {"distribution": "uniform", "seed": null, "scale": 1.0, "mode": "fan_avg"}, "class_name": "VarianceScaling"}, "filters": 512}, "class_name": "Conv2D", "name": "conv2d_35"}, {"inbound_nodes": [[["conv2d_35", 0, 0, {}], ["activation_14", 0, 0, {}]]], "config": {"trainable": true, "name": "add_15"}, "class_name": "Add", "name": "add_15"}, {"inbound_nodes": [[["add_15", 0, 0, {}]]], "config": {"gamma_regularizer": null, "trainable": true, "axis": -1, "gamma_initializer": {"config": {}, "class_name": "Ones"}, "beta_regularizer": null, "beta_constraint": null, "moving_mean_initializer": {"config": {}, "class_name": "Zeros"}, "beta_initializer": {"config": {}, "class_name": "Zeros"}, "moving_variance_initializer": {"config": {}, "class_name": "Ones"}, "epsilon": 0.001, "gamma_constraint": null, "name": "batch_normalization_31", "scale": true, "center": true, "momentum": 0.99}, "class_name": "BatchNormalization", "name": "batch_normalization_31"}, {"inbound_nodes": [[["batch_normalization_31", 0, 0, {}]]], "config": {"trainable": true, "activation": "relu", "name": "activation_15"}, "class_name": "Activation", "name": "activation_15"}, {"inbound_nodes": [[["activation_15", 0, 0, {}]]], "config": {"kernel_size": [3, 3], "trainable": true, "activation": "relu", "kernel_regularizer": {"config": {"l2": 9.999999747378752e-05, "l1": 0.0}, "class_name": "L1L2"}, "dilation_rate": [1, 1], "padding": "same", "strides": [1, 1], "activity_regularizer": null, "kernel_constraint": null, "bias_constraint": null, "data_format": "channels_last", "name": "conv2d_36", "use_bias": true, "bias_initializer": {"config": {}, "class_name": "Zeros"}, "bias_regularizer": null, "kernel_initializer": {"config": {"distribution": "uniform", "seed": null, "scale": 1.0, "mode": "fan_avg"}, "class_name": "VarianceScaling"}, "filters": 512}, "class_name": "Conv2D", "name": "conv2d_36"}, {"inbound_nodes": [[["conv2d_36", 0, 0, {}]]], "config": {"gamma_regularizer": null, "trainable": true, "axis": -1, "gamma_initializer": {"config": {}, "class_name": "Ones"}, "beta_regularizer": null, "beta_constraint": null, "moving_mean_initializer": {"config": {}, "class_name": "Zeros"}, "beta_initializer": {"config": {}, "class_name": "Zeros"}, "moving_variance_initializer": {"config": {}, "class_name": "Ones"}, "epsilon": 0.001, "gamma_constraint": null, "name": "batch_normalization_32", "scale": true, "center": true, "momentum": 0.99}, "class_name": "BatchNormalization", "name": "batch_normalization_32"}, {"inbound_nodes": [[["batch_normalization_32", 0, 0, {}]]], "config": {"kernel_size": [3, 3], "trainable": true, "activation": "relu", "kernel_regularizer": {"config": {"l2": 9.999999747378752e-05, "l1": 0.0}, "class_name": "L1L2"}, "dilation_rate": [1, 1], "padding": "same", "strides": [1, 1], "activity_regularizer": null, "kernel_constraint": null, "bias_constraint": null, "data_format": "channels_last", "name": "conv2d_37", "use_bias": true, "bias_initializer": {"config": {}, "class_name": "Zeros"}, "bias_regularizer": null, "kernel_initializer": {"config": {"distribution": "uniform", "seed": null, "scale": 1.0, "mode": "fan_avg"}, "class_name": "VarianceScaling"}, "filters": 512}, "class_name": "Conv2D", "name": "conv2d_37"}, {"inbound_nodes": [[["conv2d_37", 0, 0, {}], ["activation_15", 0, 0, {}]]], "config": {"trainable": true, "name": "add_16"}, "class_name": "Add", "name": "add_16"}, {"inbound_nodes": [[["add_16", 0, 0, {}]]], "config": {"gamma_regularizer": null, "trainable": true, "axis": -1, "gamma_initializer": {"config": {}, "class_name": "Ones"}, "beta_regularizer": null, "beta_constraint": null, "moving_mean_initializer": {"config": {}, "class_name": "Zeros"}, "beta_initializer": {"config": {}, "class_name": "Zeros"}, "moving_variance_initializer": {"config": {}, "class_name": "Ones"}, "epsilon": 0.001, "gamma_constraint": null, "name": "batch_normalization_33", "scale": true, "center": true, "momentum": 0.99}, "class_name": "BatchNormalization", "name": "batch_normalization_33"}, {"inbound_nodes": [[["batch_normalization_33", 0, 0, {}]]], "config": {"trainable": true, "activation": "relu", "name": "activation_16"}, "class_name": "Activation", "name": "activation_16"}, {"inbound_nodes": [[["activation_16", 0, 0, {}]]], "config": {"trainable": true, "data_format": "channels_last", "name": "global_average_pooling2d_1"}, "class_name": "GlobalAveragePooling2D", "name": "global_average_pooling2d_1"}, {"inbound_nodes": [[["global_average_pooling2d_1", 0, 0, {}]]], "config": {"trainable": true, "activation": "relu", "units": 1000, "kernel_regularizer": null, "use_bias": true, "kernel_constraint": null, "bias_constraint": null, "activity_regularizer": null, "name": "dense_1", "bias_initializer": {"config": {}, "class_name": "Zeros"}, "bias_regularizer": null, "kernel_initializer": {"config": {"distribution": "normal", "seed": null, "scale": 2.0, "mode": "fan_in"}, "class_name": "VarianceScaling"}}, "class_name": "Dense", "name": "dense_1"}, {"inbound_nodes": [[["dense_1", 0, 0, {}]]], "config": {"trainable": true, "activation": "softmax", "units": 18, "kernel_regularizer": null, "use_bias": true, "kernel_constraint": null, "bias_constraint": null, "activity_regularizer": null, "name": "dense_2", "bias_initializer": {"config": {}, "class_name": "Zeros"}, "bias_regularizer": null, "kernel_initializer": {"config": {"distribution": "uniform", "seed": null, "scale": 1.0, "mode": "fan_avg"}, "class_name": "VarianceScaling"}}, "class_name": "Dense", "name": "dense_2"}], "name": "model_1", "input_layers": [["input_1", 0, 0]]}, "class_name": "Model", "keras_version": "2.1.2", "backend": "tensorflow"}